5.深度学习计算/mlp_net.params (torch, 33616 bytes, 4 tensors)

hidden.weight f4 [256, 20]
0	0xbd54d018	-0.051956266
1	0x3e59b4aa	0.21260324
2	0x3dd29580	0.10282421
3	0x3e1822f8	0.1485709
4	0xbe063223	-0.13105063
5	0x3d740638	0.059576243
6	0x3d593e50	0.05303794
7	0x3e5d033c	0.21583265
8	0xbe00f9a2	-0.12595227
9	0x3d24d950	0.040246308
10	0x3e14d5a0	0.14534616
11	0xbe556ef1	-0.20843102
12	0x3e1ae070	0.15124679
13	0x3e3bc432	0.18336561
14	0xbd82637a	-0.0636663
15	0xbc9cc638	-0.019137487
16	0x3e58d2f0	0.21174216
17	0xbdd26d24	-0.10274723
18	0xbd5d4bfc	-0.054027542
19	0xbccb16b8	-0.024791107
20	0x3d19d070	0.037552297
21	0x3e5b575c	0.21420044
22	0x3d4b3060	0.04960668
23	0xbda95646	-0.082684085
24	0xbe23a2cc	-0.15980071
25	0xbd87f83e	-0.06639145
26	0x3cf4b2d0	0.02987042
27	0xbde74417	-0.11292284
28	0xbd3d633c	-0.046237215
29	0xbdb6354a	-0.08896883
30	0xbe0f1df8	-0.13976276
31	0x3e53bd8a	0.20677772
32	0x3e40fac4	0.1884566
33	0xbd18d944	-0.037316576
34	0xbdbebc9c	-0.09313318
35	0x3d1ded08	0.03855613
36	0x3e0eb908	0.13937771
37	0xbdf39223	-0.11893108
38	0x3e14572e	0.14486381
39	0x3e20633e	0.15662858
40	0xbe6430f6	-0.22284302
41	0x3e1fdef4	0.15612394
42	0x3e1e517a	0.15460768
43	0xbdbfb872	-0.09361352
44	0xbe48e7a3	-0.19619612
45	0x3e185a56	0.1487821
46	0x3e29b39c	0.16572422
47	0x3e542b24	0.20719582
48	0xbe3c3567	-0.18379746
49	0x3e573c30	0.21019053
50	0xbe45615b	-0.1927542
51	0x3e4badaa	0.19890466
52	0xbe0d6818	-0.1380924
53	0x3c853dd0	0.016264826
54	0x3d9e7ba4	0.07738426
55	0xbdbd3386	-0.09238343
56	0xbe4b5d1e	-0.1985974
57	0xbe0c3362	-0.13691476
58	0xbded1f6b	-0.11578258
59	0x3e21e5f2	0.15810373
60	0x3cd57420	0.02605635
61	0xbe18ef22	-0.14934972
62	0x3d9e71c4	0.07736543
63	0x3e0d827c	0.13819307
64	0xbdbe9c3e	-0.093071446
65	0xbb818320	-0.003952399
66	0xbe5e6438	-0.21717918
67	0xbe01d1ac	-0.1267764
68	0xbe0dd329	-0.13850082
69	0xbce3cc18	-0.02780728
70	0x3e274e94	0.16338569
71	0xbddcf052	-0.10788025
72	0x3e59d248	0.21271622
73	0xbdc67f06	-0.096921965
74	0xbe5e7a68	-0.21726382
75	0xbe2ef150	-0.17084241
76	0x3c5dfbc0	0.013548791
77	0xbe2a3a5c	-0.16623825
78	0x3da3e298	0.08002204
79	0x3d223390	0.039599955
80	0x3d580e40	0.052747965
81	0xbe0a797c	-0.13522905
82	0x3dcd8f28	0.100370705
83	0xbcc1f9e0	-0.02367872
84	0xbe4d1a54	-0.20029575
85	0x3c7a0250	0.01525934
86	0x3e04d362	0.12971261
87	0xbe38c5d1	-0.18044211
88	0x3d0ecd20	0.03486359
89	0x3df66b90	0.12032235
90	0xbe35bc0b	-0.17747514
91	0x3e537e9a	0.20653763
92	0xbd9b2e64	-0.07577208
93	0xbdf1423d	-0.11780212
94	0xbe2d6577	-0.16933237
95	0xbe49351e	-0.19649169
96	0x3de0eed8	0.10983056
97	0x3e5a5596	0.21321711
98	0x3dfe4f14	0.12417427
99	0x3d9f1870	0.07768333
100	0x3ddb54e0	0.10709548
101	0xbe4044ad	-0.18776198
102	0xbdd847ec	-0.10560593
103	0xbdeaea6b	-0.11470493
104	0xbddfae2e	-0.10921894
105	0x3e4a50e2	0.19757417
106	0xbe1e3f04	-0.15453726
107	0xbd33baf4	-0.043879464
108	0x3e14ac6c	0.14518899
109	0x3b05ad40	0.0020397455
110	0xbe161bd6	-0.14659056
111	0x3c189480	0.009312749
112	0x3a808300	0.0009804666
113	0xbd7747ac	-0.060371086
114	0x3e02e23a	0.12781611
115	0x3e072748	0.13198578
116	0x3dad5288	0.08463007
117	0xbe247506	-0.16060266
118	0xbe137210	-0.1439898
119	0xbe58941f	-0.21150254
120	0xbdff8318	-0.12476176
121	0xbd0f61c0	-0.03500533
122	0xbe068f23	-0.1314054
123	0x3bf5ca40	0.0075009167
124	0x3e52f0c2	0.20599654
125	0x3dbbeea8	0.091763794
126	0xbd4f771c	-0.0506507
127	0x3dbb9848	0.09159905
128	0xbd8e2b64	-0.0694187
129	0xbc98ff58	-0.018676445
130	0xbe59758f	-0.21236251
131	0x3e523ef0	0.20531821
132	0xbd5386f0	-0.05164236
133	0xbe457cd3	-0.19285898
134	0x3d32f558	0.04369101
135	0xbbd87720	-0.0066059977
136	0x3da6b34c	0.08139667
137	0x3e499e34	0.19689256
138	0xbd1b44a8	-0.037907273
139	0xbe0ab844	-0.13546854
140	0xbddc56a5	-0.10758714
141	0xbe08c84e	-0.1335766
142	0x3de8b5e4	0.11362818
143	0xbe207a4c	-0.15671653
144	0xbe21e587	-0.15810214
145	0xbcd77b90	-0.026304036
146	0x3e2c5ce6	0.16832313
147	0xbd1db360	-0.038501143
148	0xbe297601	-0.16548921
149	0x3d9fea10	0.07808316
150	0xbcfb3518	-0.030664966
151	0xbe178f42	-0.14800742
152	0xbd874484	-0.06604865
153	0xbe29e076	-0.16589531
154	0xbd9302ea	-0.0717829
155	0xbd708770	-0.058722913
156	0x3dedbec8	0.11608654
157	0x3bb19800	0.005419731
158	0x3b7d6200	0.003866315
159	0xb9bfc800	-0.0003657937
160	0xbdc3d31e	-0.09561752
161	0xbe1e6e6c	-0.1547181
162	0xbe218ae9	-0.15775646
163	0xbe60774c	-0.21920508
164	0x3dc98064	0.09838942
165	0x3e1a9cc6	0.15098867
166	0xbda9afbe	-0.08285473
167	0xbe1fe77e	-0.15615651
168	0xbdcd7474	-0.10031977
169	0x3c577500	0.013150454
170	0x3dbf694c	0.09346256
171	0x3e08eef0	0.13372397
172	0xbdab2c4e	-0.0835806
173	0x3e4abbf0	0.19798255
174	0xbd8aa38a	-0.06769474
175	0xbe63864f	-0.22219203
176	0x3bd88e60	0.0066087693
177	0x3d899a80	0.06718922
178	0x3c567060	0.013088316
179	0x3d2256a8	0.039633423
180	0x3dc150f0	0.09439266
181	0x3de5d468	0.11222154
182	0xbe1fe7ca	-0.15615764
183	0x3d0bd0d0	0.034134686
184	0xbe1b85a5	-0.151877
185	0x3cdad920	0.026714861
186	0x3da3d298	0.07999152
187	0x3e1af24e	0.15131494
188	0xbdb51712	-0.08842291
189	0x3d10df60	0.035369277
190	0xbdb9a890	-0.09065354
191	0xbc23c0f0	-0.00999473
192	0xbe066adc	-0.13126701
193	0x3df1c068	0.11804277
194	0xbe3a8485	-0.18214615
195	0xba1faf00	-0.00060914457
196	0x3e20c470	0.15699935
197	0xbe562a72	-0.20914629
198	0xbd792f5c	-0.06083618
199	0x3e5cccd4	0.2156251
200	0x3d914a90	0.070943
201	0x3d916554	0.07099405
202	0x3d2a68b0	0.041603744
203	0xbe1b22a4	-0.15149933
204	0x3c84a5b8	0.016192302
205	0xbd5c1cdc	-0.05373846
206	0xbe0e76aa	-0.13912454
207	0xbe0776d4	-0.13228923
208	0xbdf37ae6	-0.118886754
209	0xbe4947a1	-0.1965623
210	0xbe4cbc14	-0.19993621
211	0x3e6224a2	0.22084287
212	0xbb8a3380	-0.004217565
213	0xbd5d2bec	-0.053996965
214	0xbc154950	-0.009111717
215	0xbe575b45	-0.2103091
216	0xbe53c0e2	-0.20679048
217	0x3d4efbf0	0.050533235
218	0x3e62cbec	0.22148103
219	0xbdace9ea	-0.08443053
220	0x3dbfe578	0.093699396
221	0x3dac3398	0.08408278
222	0xbe51a64b	-0.20473592
223	0xbde22be8	-0.11043531
224	0x3e083fb8	0.13305557
225	0xbc3e0110	-0.011596933
226	0x3e63961e	0.22225234
227	0x3b8b6860	0.004254386
228	0xbcce7040	-0.02520001
229	0xbd6d48c4	-0.057930723
230	0x3e27cdc2	0.16387084
231	0xbd974a0a	-0.07387169
232	0x3e0f5376	0.13996682
233	0xbe03b658	-0.12862527
234	0xbe223468	-0.15840304
235	0x3e44da38	0.19223869
236	0x3c1279a0	0.0089401305
237	0x3d959504	0.07303813
238	0xbcea3760	-0.028590858
239	0x3c0eacd0	0.008708194
240	0x3dd342ec	0.10315499
241	0x3df50238	0.11963314
242	0xbe5bb381	-0.21455194
243	0xbde4db5b	-0.11174651
244	0x3d4ef2e8	0.050524622
245	0xbdd23aa6	-0.102650926
246	0x3dd80420	0.10547662
247	0xbdf10677	-0.11768811
248	0xbe633d19	-0.22191276
249	0x3e447418	0.19184911
250	0x3da4e7a4	0.080519944
251	0xbdff874a	-0.12476976
252	0xbe426067	-0.18982087
253	0xbb026a40	-0.0019899756
254	0x3e297e68	0.16552126
255	0x3de05470	0.10953605

hidden.bias f4 [256]
0	0xbde6ef38	-0.11276096
1	0x3d4b3020	0.049606442
2	0xbe5a55e6	-0.2132183
3	0x3dbd4e80	0.09243488
4	0xbe1fab83	-0.1559277
5	0x3e475f86	0.19470033
6	0xbb9ab1e0	-0.0047209114
7	0xbd5e9b1c	-0.054347143
8	0xbdb0b6ac	-0.08628592
9	0xbe623560	-0.22090673
10	0xbe1e20ae	-0.15442154
11	0xbdff431a	-0.124639705
12	0x3c24cbe0	0.010058373
13	0x3d330268	0.043703467
14	0x3d1acb88	0.03779176
15	0x3bb8eae0	0.0056432337
16	0xbe230574	-0.15920049
17	0x3d0ac900	0.033883095
18	0x3db17a10	0.0866586
19	0x3ccb1550	0.024790436
20	0x3e381bf6	0.17979416
21	0x3e43028a	0.19043937
22	0xbd8f3684	-0.0699282
23	0xbd87c99e	-0.06630252
24	0x3e2b6b74	0.16740209
25	0x3e0e58d0	0.13901067
26	0xbe22e93d	-0.15909286
27	0x3d6dadd0	0.05802709
28	0xbe50a7f9	-0.20376576
29	0x3d8da2b4	0.06915799
30	0x3dd59b9c	0.10430071
31	0x3e0f7bea	0.14012113
32	0x3e30e6bc	0.17275518
33	0xbe584011	-0.2111819
34	0xbe2e65d8	-0.17031038
35	0x3e04e68e	0.12978575
36	0xbe3c1ffa	-0.18371573
37	0xbe5a7961	-0.21335365
38	0xbbbff500	-0.0058580637
39	0xbda7c946	-0.08192687
40	0xbe565bc0	-0.20933437
41	0x3dd9d478	0.10636228
42	0xbe372faa	-0.17889276
43	0x3bac6980	0.0052616
44	0xbd6a7498	-0.0572401
45	0xbd98854c	-0.07447299
46	0x3e3348f6	0.17508301
47	0x3db53304	0.08847621
48	0x3d9555e4	0.07291773
49	0x3e527836	0.2055367
50	0xbe03e596	-0.12880549
51	0xbd5ef690	-0.05443436
52	0xbdf33bac	-0.11876616
53	0x3deeedb4	0.11666432
54	0x3d738e30	0.059461772
55	0xbddaf078	-0.10690397
56	0x3e3e66fe	0.18593976
57	0xbe481e26	-0.1954275
58	0x3e241f68	0.16027606
59	0x3e1795b2	0.14803198
60	0x3cd15d08	0.025557056
61	0x3dccf4b8	0.10007614
62	0x3e6019f6	0.21884903
63	0x3c49fc80	0.012328267
64	0xbe3626e8	-0.17788279
65	0x3e004ffe	0.12530515
66	0x3e3abdd6	0.18236479
67	0xbe4c002e	-0.19921944
68	0x3e0502de	0.12989375
69	0x3e031632	0.12801436
70	0x3e2eeb2c	0.17081898
71	0x3b68e0c0	0.0035534352
72	0x3dfc1310	0.123083234
73	0x3c187ec0	0.009307563
74	0xbe0f217a	-0.13977614
75	0x3da61268	0.081089795
76	0x3e155e06	0.14586648
77	0xbd60c450	-0.05487472
78	0x3e224636	0.15847096
79	0x3bd5c980	0.006524265
80	0x3e628d82	0.22124293
81	0x3e562582	0.20912746
82	0x3ce31b90	0.027723104
83	0xbde8e574	-0.1137189
84	0xbe1169d6	-0.1420053
85	0x3e55ed9a	0.20891419
86	0xbd70b078	-0.058762044
87	0xbe066928	-0.13126051
88	0x3dc1f478	0.09470457
89	0x3dbd01b8	0.092288435
90	0x3e26c8c6	0.16287526
91	0x3c21bf80	0.009872317
92	0xbd1b2084	-0.037872806
93	0x3e422edc	0.18963188
94	0x3e210d10	0.15727639
95	0x3dea96ac	0.1145452
96	0xbe34ab4e	-0.17643473
97	0xbe49a1ee	-0.19690678
98	0x39253000	0.00015753508
99	0x3e4269f0	0.18985724
100	0x3ac80b80	0.0015262216
101	0xbe5727f3	-0.21011333
102	0xbc94c030	-0.018158048
103	0x3c3a48f0	0.011369929
104	0x3c7dd880	0.015493512
105	0x3e2a478c	0.16628855
106	0x3e5a18b4	0.21298486
107	0xbd8b66f2	-0.06806745
108	0x3e606170	0.2191217
109	0x3e24034a	0.1601688
110	0x3c8ee5c8	0.017443553
111	0x3d4f40d8	0.05059895
112	0xbdf83759	-0.12119932
113	0xbe645262	-0.22297052
114	0x3c4f1a60	0.012640566
115	0x3d447118	0.047959417
116	0xbe31ed47	-0.1737567
117	0xbe33fb7b	-0.17576401
118	0xbc58f090	-0.013240948
119	0xbe24fbdc	-0.16111702
120	0x3e148f32	0.1450775
121	0xbd111c4c	-0.035427377
122	0xbe4d4c87	-0.20048724
123	0x3e0996e8	0.13436472
124	0x3cb518b8	0.022106513
125	0xbd59531c	-0.053057775
126	0xbe299ee5	-0.1656452
127	0xbcbe9c78	-0.02326797
128	0x3cdd6ca0	0.027029335
129	0x3c06fc80	0.008238912
130	0x3e17fa12	0.14841488
131	0xbbf8a080	-0.0075874925
132	0xbd3deb5c	-0.046367034
133	0xbe2e7440	-0.17036533
134	0xbc582c70	-0.0131941885
135	0x3d451850	0.04811889
136	0xbce5b818	-0.028041884
137	0x3dd6609c	0.104676455
138	0xbe4cdf38	-0.20007026
139	0xbe59e8c1	-0.21280195
140	0x3b853ac0	0.0040658414
141	0xbe31e42a	-0.17372194
142	0xbe4ba86b	-0.19888465
143	0xbe525e79	-0.20543851
144	0xbe237bc2	-0.15965179
145	0x3e06b60c	0.13155383
146	0xbe0304a2	-0.12794736
147	0x3d7888c8	0.06067732
148	0x39d7b200	0.00041140616
149	0x3e2d203c	0.16906828
150	0xbd8be822	-0.06831385
151	0x3e21e7f8	0.15811145
152	0x3e17f33e	0.14838883
153	0x3be4efa0	0.0069865733
154	0x3d80b4c8	0.06284481
155	0x3d8cf38c	0.068823904
156	0x3dc870c8	0.09787136
157	0xbb96ee20	-0.0046060234
158	0xbd0f1424	-0.034931317
159	0xbe3a31de	-0.18183085
160	0x3cf93770	0.030421942
161	0x3da921c0	0.082583904
162	0x3db8ae24	0.0901759
163	0x3e20bb30	0.15696406
164	0x3c4e32f0	0.012585387
165	0x3d9abba0	0.07555318
166	0xbda45d48	-0.080256045
167	0x3e47313a	0.19452372
168	0xbe46ae84	-0.1940251
169	0x3e2e889e	0.17044303
170	0xbdc8c246	-0.0980268
171	0x3dbd1738	0.09232944
172	0x3e4cec44	0.20012003
173	0xbd0539bc	-0.032525763
174	0x3c5f05c0	0.013612211
175	0x3e0e3ab8	0.13889587
176	0xbe46fa33	-0.19431381
177	0x3e15d5b8	0.14632308
178	0xbe08704e	-0.13324091
179	0xbd72bec4	-0.05926396
180	0xbe1b2c20	-0.15153551
181	0xbe0bb38a	-0.13642707
182	0xbc4fa1f0	-0.012672886
183	0x3e2f1ab0	0.17100024
184	0x3e3f98cc	0.18710631
185	0x3d152a20	0.036417127
186	0x3e5c6f02	0.21526721
187	0xbd943430	-0.072365165
188	0x3defc96c	0.1170834
189	0xbd08e09c	-0.03341733
190	0x3dbbef54	0.091765076
191	0xbe0a042e	-0.13478157
192	0xbcdf05f8	-0.027224526
193	0xbe3bbdd8	-0.18334138
194	0xbe04e520	-0.12978029
195	0x3e53e0e4	0.20691258
196	0xbde09bf5	-0.109672464
197	0x3e5ae582	0.21376613
198	0xbdcbfcba	-0.09960313
199	0x3e35111e	0.17682311
200	0xbe14f776	-0.14547524
201	0x3dd7a920	0.10530305
202	0x3e2d1344	0.1690188
203	0xbe43cf8e	-0.19122145
204	0x3d1bbc90	0.038021624
205	0x3cb67d60	0.02227658
206	0x3e59de7a	0.21276274
207	0x3e6426fe	0.222805
208	0x3e1fe8b0	0.15616107
209	0x3de2e2d4	0.1107842
210	0x3e325f4c	0.17419165
211	0x3dcc31fc	0.09970471
212	0x3e172514	0.14760238
213	0x3ddb9394	0.10721508
214	0x3e11a038	0.14221275
215	0xbc1f4ba0	-0.00972262
216	0xbe601154	-0.2188161
217	0xbd98b7a2	-0.074569
218	0xbe35e02f	-0.177613
219	0x3d8f5244	0.06998113
220	0x3e5787dc	0.2104792
221	0x3c1ef6a0	0.009702355
222	0xbc841780	-0.016124487
223	0x3e4e2868	0.20132601
224	0xbe517b3e	-0.2045717
225	0xbe0d3e2f	-0.13793252
226	0xbc189df0	-0.009314999
227	0xbe2b284a	-0.16714588
228	0x3e09902e	0.13433906
229	0x3b136dc0	0.0022495836
230	0xbd5bac30	-0.053631008
231	0x3ddf79f4	0.109119326
232	0xbe63ab27	-0.22233258
233	0x3dd18538	0.102304876
234	0xbd996110	-0.07489216
235	0xbcf284c0	-0.029604316
236	0xbd9bc906	-0.076067016
237	0x3dae046c	0.08496937
238	0xbe08d4f1	-0.1336248
239	0x3da4df40	0.08050394
240	0xbdc4694a	-0.09590395
241	0xbe62230d	-0.22083683
242	0x3d2cd3d0	0.042194188
243	0xbcbd0b70	-0.023076743
244	0xbe5ce468	-0.21571505
245	0x3d256418	0.04037866
246	0x3e542c72	0.2072008
247	0xbdbd6ebc	-0.092496365
248	0x3d6fb828	0.058525234
249	0xbdda8dea	-0.10671599
250	0xbe37fc59	-0.17967357
251	0xbd8d57ac	-0.06901488
252	0x3dd98484	0.106209785
253	0x3c8ff128	0.017571047
254	0x3dab0ad0	0.08351672
255	0x3d949194	0.07254329

out.weight f4 [10, 256]
0	0xbc5f87c8	-0.013643213
1	0xbd2eb54a	-0.04265336
2	0x3d4c982e	0.049949817
3	0x3d111002	0.035415657
4	0xbd14e756	-0.03635343
5	0x3d70712e	0.058701687
6	0x3bfee690	0.00777895
7	0x3d6b5552	0.057454415
8	0x3d286a7a	0.04111717
9	0x3cfc57d4	0.030803598
10	0xbcf1f50c	-0.029535793
11	0x3d3cf254	0.04612954
12	0x3d0e539c	0.034747705
13	0x3d3aa744	0.045569673
14	0xbd3509e2	-0.044198878
15	0xbcc60594	-0.024172582
16	0xbc5d32d8	-0.013500892
17	0xbd078c2e	-0.03309267
18	0x3ca88e3c	0.020575635
19	0xbcffd8a0	-0.031231225
20	0xbc873d38	-0.016508684
21	0x3c2512f8	0.010075323
22	0xbd362ed8	-0.044478267
23	0x3bd413f0	0.0064721033
24	0x3d2acfe8	0.04170218
25	0xbd12f400	-0.035877228
26	0x3d5755bc	0.052571997
27	0xbc833178	-0.0160148
28	0xbcd08fc0	-0.02545917
29	0x3c7ae9c8	0.015314527
30	0xbd5b079c	-0.053474054
31	0x3cc8282c	0.024433218
32	0x3bdfadf0	0.006826155
33	0x3cb32c00	0.021871567
34	0xbd17bab2	-0.03704328
35	0xbd5387ee	-0.051643305
36	0xbb9f2360	-0.004856512
37	0x3d75764a	0.059927262
38	0xbcaea740	-0.021319985
39	0x3d68d584	0.05684425
40	0x3d5160ec	0.051117823
41	0x3bd358e0	0.0064498037
42	0xbd0ca816	-0.034339987
43	0xbd065084	-0.03279163
44	0xbcfaba38	-0.030606374
45	0xbc8d8868	-0.017276958
46	0x3d715fe4	0.05892934
47	0xbca16e60	-0.019705951
48	0xbd43c482	-0.047794826
49	0x3d3354e8	0.043782145
50	0x3c9b5ea4	0.018966027
51	0xbc091d10	-0.008368745
52	0xbc775720	-0.015096456
53	0xbd5ae2fc	-0.053439125
54	0xbc892b7c	-0.016744368
55	0x3c492758	0.012277447
56	0xbb920b00	-0.0044568777
57	0xbcfc78f4	-0.030819394
58	0x3d3157f8	0.043296784
59	0xbd7908d6	-0.060799442
60	0xbcf2fba0	-0.029661
61	0xbc87fc90	-0.016599923
62	0xbd0b401e	-0.033996694
63	0xbd42d338	-0.047564715
64	0xbd6429f0	-0.055704057
65	0xbd22abe2	-0.0397147
66	0xbcf73ff4	-0.030181862
67	0xbc024280	-0.007950425
68	0xbd791f1c	-0.060820684
69	0xbd05907a	-0.032608487
70	0x3cb3f7d4	0.02196876
71	0xbcc9acdc	-0.024618559
72	0xbd0a97fa	-0.033836342
73	0x3c7457e0	0.014913529
74	0xbc7b0690	-0.015321389
75	0x3b87a8b0	0.004139982
76	0xbd682a68	-0.056681067
77	0xbd2e8132	-0.04260368
78	0xbc762648	-0.015023775
79	0xbd55b720	-0.052176595
80	0xbcd27a0c	-0.025692962
81	0x3d255a00	0.040369034
82	0x3d1e3130	0.038621128
83	0xbd540bfa	-0.051769234
84	0x3d4ee054	0.050506905
85	0x3b30a4c0	0.0026953667
86	0xbd124bbc	-0.035716757
87	0xbd712038	-0.058868617
88	0xbd54b602	-0.05193139
89	0x3bd9c850	0.0066461936
90	0x3d3c56bc	0.045981154
91	0xbd46b0e8	-0.048508555
92	0xbd07780c	-0.03307347
93	0xbce439e4	-0.027859636
94	0xbc6a94f0	-0.014317736
95	0x3d41d1ea	0.04731933
96	0xbca7248c	-0.02040317
97	0xbd0a279c	-0.03372918
98	0x3d279d22	0.040921338
99	0x3cd88964	0.0264327
100	0x3cc5bbd8	0.024137422
101	0xbd6796ae	-0.056540184
102	0x3d4eead2	0.05051691
103	0x3ccbdea4	0.024886437
104	0x3d7bbcb4	0.06145926
105	0x3d580c68	0.052746207
106	0xbd635350	-0.055499375
107	0x3cbc8190	0.023010999
108	0xbd4dd28a	-0.050249614
109	0x3d2bb922	0.041924603
110	0x3c3d6fe0	0.011562318
111	0x3c958af4	0.018254735
112	0xbd1dac12	-0.038494177
113	0x3d7c0ff8	0.061538666
114	0x3bfdd540	0.0077463686
115	0x3d044ff8	0.032302827
116	0x3c0a7810	0.008451477
117	0xbab3b880	-0.0013711601
118	0x3d2cf6ea	0.042227663
119	0x3c112b20	0.008860379
120	0xbd7d2cc6	-0.061810277
121	0xbd55eadc	-0.052225932
122	0x3d0f56ba	0.03499482
123	0x3caa62e4	0.020799108
124	0x3cdf5d44	0.027266152
125	0xbcd27600	-0.025691032
126	0x3d231712	0.039816923
127	0x3d256d74	0.040387586
128	0x3ca46eb4	0.020072319
129	0x3ce706bc	0.028201453
130	0x3d72644e	0.05917769
131	0xbbe26960	-0.0069095343
132	0xbd112228	-0.035432965
133	0xbc3ef700	-0.011655569
134	0xbd009b1c	-0.031397924
135	0xbd087e12	-0.033323355
136	0x3d2b4746	0.04181602
137	0xbd02f3b6	-0.031970702
138	0x3d526a74	0.051371053
139	0x3d42579a	0.047446825
140	0x3ce986c0	0.028506637
141	0x3a3cf280	0.0007207766
142	0xbbc513a0	-0.0060143024
143	0x3c8a1a58	0.016858265
144	0xbd4812ba	-0.048845984
145	0xbce7dcec	-0.028303586
146	0x3d26a692	0.040686198
147	0xbcb4af90	-0.022056371
148	0xbd3de5b8	-0.046361655
149	0x3d333ac2	0.043757208
150	0x3d6ec838	0.058296412
151	0xbce4e6a8	-0.027942017
152	0xbd1a732e	-0.0377075
153	0xbb920970	-0.0044566914
154	0x3d49fc04	0.049312606
155	0x3d0fd6e4	0.035117045
156	0xbccdef68	-0.025138572
157	0xbd621f4c	-0.05520563
158	0xbd6668be	-0.056252234
159	0x3c825f14	0.015914477
160	0xbc4ed420	-0.012623817
161	0x3cfd46d0	0.030917555
162	0x3cefbe60	0.029265583
163	0x3c99c7f4	0.018772103
164	0x3bafb4f0	0.0053621456
165	0x3bc72ec0	0.006078571
166	0xbd27a112	-0.040925093
167	0xbcbe6064	-0.023239322
168	0x3cee4868	0.02908726
169	0xbd54b478	-0.05192992
170	0x3d679e92	0.05654771
171	0x3d2dda38	0.042444438
172	0xbd2dc4e0	-0.042424083
173	0x3d66ef52	0.056380577
174	0xbd3f70e4	-0.04673852
175	0xbafee500	-0.001944691
176	0xba97b8c0	-0.0011575446
177	0x3d06b1a8	0.03288427
178	0x3d679c6e	0.056545667
179	0x3d4e2d98	0.05033645
180	0xba974880	-0.0011541992
181	0x3ad0a540	0.0015918389
182	0xbd20540a	-0.039142646
183	0xbccce084	-0.025009401
184	0x3b1c8b20	0.0023886636
185	0xbb4152e0	-0.002949886
186	0x3c48a700	0.012246847
187	0xbd47457c	-0.04865025
188	0xbd007036	-0.031357013
189	0x3d42c4c6	0.04755094
190	0xbc882e90	-0.016623765
191	0x3d7a23f4	0.061069444
192	0xbc8a7c24	-0.016904898
193	0x3d1e9aaa	0.038721718
194	0x3c92731c	0.017877154
195	0xbd44c5c6	-0.048040174
196	0xbc578e08	-0.0131564215
197	0x3c8b9cf8	0.017042622
198	0x3b0cb280	0.00214687
199	0xbaf9d700	-0.0019061267
200	0xbd0764c4	-0.033055082
201	0x3d775eea	0.06039325
202	0x3ce38388	0.02777268
203	0xbc8e3c70	-0.017362803
204	0x3d5c096e	0.05371993
205	0x3d77be8e	0.06048446
206	0xbc90e150	-0.017685562
207	0x3c5e2198	0.013557814
208	0xbd2be6ec	-0.04196827
209	0xbb1b29a0	-0.0023675933
210	0x3c43e168	0.0119555965
211	0xbd483fc0	-0.04888892
212	0x3d27c8f4	0.04096313
213	0xbd217f86	-0.039428256
214	0xbd78149e	-0.060566537
215	0x3cd1f8e4	0.025631376
216	0x3d36bc86	0.044613384
217	0x3ca02f44	0.019553788
218	0x39b9b900	0.00035423785
219	0x3c8a9848	0.016918316
220	0x3d5d83dc	0.05408083
221	0xbc8519c8	-0.016247645
222	0x3c0ea2e8	0.008705832
223	0xbd6b8c5c	-0.057506904
224	0x3d365fc2	0.044524916
225	0xbd64d266	-0.055864714
226	0xbbd32be0	-0.0064444393
227	0xbd688f96	-0.05677756
228	0xbd61f64e	-0.055166535
229	0x3c2a8790	0.010408297
230	0xbc92888c	-0.017887376
231	0xbc8efb2c	-0.017453752
232	0x3a913500	0.0011078417
233	0xbbfc9f00	-0.007709384
234	0xbd5cf884	-0.05394794
235	0xbc41da20	-0.01183179
236	0x3cbeb6d0	0.023280531
237	0x3d03cb10	0.032176077
238	0x3d58bb10	0.05291277
239	0xbca0fa40	-0.019650578
240	0x3d3c29ba	0.04593823
241	0x3d4c9f04	0.049956337
242	0x3cc33dcc	0.023833178
243	0xbce1f2e0	-0.027581632
244	0xbc657150	-0.014004067
245	0xbb279b60	-0.0025574788
246	0x3c12ea90	0.008967057
247	0x3bca5cf0	0.00617563
248	0xbd14497a	-0.036202885
249	0xbd238048	-0.03991726
250	0x3d51f2e8	0.051257044
251	0x3d646942	0.055764444
252	0x3b51b360	0.0031997785
253	0xbc6792d8	-0.014134131
254	0xbcf68a9c	-0.030095391
255	0x3c60f800	0.013731003

out.bias f4 [10]
0	0x3cf5ccfc	0.03000497
1	0xbd2e3d94	-0.042539194
2	0xbcb14144	-0.021637566
3	0xbd45e922	-0.048318036
4	0xbd02a6cc	-0.03189735
5	0x3cbc9f9c	0.023025326
6	0x3d5aa6e0	0.0533818
7	0x3c80c00c	0.015716575
8	0xbc97184c	-0.018444203
9	0x3d0dbe9c	0.034605607
